code/Recommendation System/Actor Critic Model/critic.pth (torch, 10056 bytes, 3 tensors)

fc1.weight f4 [128, 14]
000000 86 55 16 3e 3a 9b a8 bd 60 18 03 3d 3d 0d dd bd
       0.14681062 -0.08232732 0.032005668 -0.107935406
000010 24 53 1e be 1c b9 1b be fb 9b 84 bd 6a 39 04 be
       -0.15461403 -0.15207332 -0.064750634 -0.12912527
000020 0b 7e 8e be 74 a1 45 3d c8 5f 22 3e 1d e5 3e 3e
       -0.27830538 0.048249677 0.1585685 0.18642087
000030 22 90 0e bd ae 4c e5 3d c3 14 3d 3e 61 f0 ba 3c
       -0.034805425 0.11196266 0.18464951 0.0228197
000040 ea f5 49 bd f7 86 32 be 76 b0 87 bd 45 c4 9e be
       -0.049306788 -0.17434298 -0.06625454 -0.31009117
000050 bf 31 f4 3d 38 14 a5 be 83 06 82 be 53 f6 72 be
       0.11923551 -0.32241988 -0.25395593 -0.23726778
000060 fe 6b f1 3d 7e e7 bf 3d d9 a1 23 3e 30 44 e4 bd
       0.11788176 0.093703255 0.15979709 -0.11145818
000070 be 9d 46 be 3b c2 04 3e 36 fb a2 3d 3b a8 77 be
       -0.19396111 0.12964718 0.07958071 -0.24185269
000080 27 c9 66 3d 8d 4e c8 3d 7b c9 1e be 47 56 1e 3d
       0.056344178 0.09780607 -0.15506546 0.0386565
000090 56 70 d7 bc 18 e0 17 3e ce 22 26 3e 13 42 f5 bd
       -0.026298683 0.14831579 0.16224214 -0.11975493
0000a0 9f be 07 3d 33 9b c4 bd 05 cc 5b bc 67 33 a6 3c
       0.033140775 -0.095999144 -0.013415341 0.020288182
0000b0 0d 17 32 be 80 0f 8a bd af 6f ac 3d 23 4e 16 3e
       -0.17391606 -0.06741238 0.084197395 0.14678244
0000c0 42 37 1c 3c 05 9d 0b 3d 70 4b 64 3d 20 60 25 3e
       0.009534659 0.034085292 0.055736005 0.1614995
0000d0 84 50 88 be a3 40 36 3e 6d 44 58 bd 98 dc a1 be
       -0.2662393 0.17798094 -0.05279963 -0.31613612
0000e0 b2 52 b7 bd af 17 7f be 68 d8 3f bc 8c 1a 16 be
       -0.0895132 -0.24911378 -0.01170931 -0.14658564
0000f0 45 4c aa 3d c2 41 52 be 76 f2 a3 3c 55 ae 69 3d
       0.083153285 -0.20532897 0.020013075 0.05705102
000100 82 5f 67 bd a4 b7 5f bd e6 50 10 3e 1a a4 2a be
       -0.056487568 -0.054618493 0.1409336 -0.16664162
000110 57 1a 27 3e ea 9e d0 bd ce e5 98 be 4e 16 49 3d
       0.16318642 -0.101865605 -0.29862827 0.049093537
000120 fa 9c ae 3d d2 0d ed 3c 47 94 e6 bd 67 1f 06 bd
       0.08526035 0.028937254 -0.112587504 -0.03274479
000130 8a fa a8 be 22 98 1e 3e db 99 67 bc ed 8f ad 3d
       -0.33003646 0.15487722 -0.014135803 0.08474717
000140 42 8b a8 3c 81 ac c2 bd 8d 2b b6 3d 6d 72 94 be
       0.020574216 -0.09505559 0.088950254 -0.2899355
000150 6b 25 8a bd 29 6f 83 be b4 11 55 be 8e 53 27 bb
       -0.06745418 -0.25670746 -0.20807534 -0.002553198
000160 73 38 53 bd 72 e1 00 be 54 34 a6 bd ed 8f 75 3e
       -0.051567506 -0.12586 -0.081154495 0.23980685
000170 ca 09 48 be 03 70 85 3d ed 91 71 be 34 60 10 bd
       -0.19534984 0.06515505 -0.23590823 -0.035247996
000180 2d 7c ce bd 51 7b 82 be 59 c8 9f 3d 07 ad 17 bd
       -0.100822784 -0.25484708 0.07801885 -0.037030246
000190 32 d8 f6 3d 9c 2c 82 bd ec 9b fe bd 24 63 af be
       0.12052955 -0.06356165 -0.124320835 -0.34255326
0001a0 85 e1 1f 3e b7 b0 99 be 7c 9a aa be 27 54 1d 3d
       0.15613373 -0.30017635 -0.33320987 0.038410332
0001b0 98 b5 aa bd cf 0b 34 3e d4 42 42 be 1f 7d 4e be
       -0.083354175 0.1758263 -0.18970805 -0.20164917
0001c0 2b f5 8e be 84 f3 91 3c 2b 3b 48 3e ad 8b 74 be
       -0.27921423 0.017816313 0.19553821 -0.23881407
0001d0 52 26 ef bd 16 5b a4 be 60 ac 41 be 85 56 d5 bd
       -0.11677231 -0.32100743 -0.18913412 -0.10416893
0001e0 2f d5 21 be 0e 73 f3 3d 99 fe 68 3e eb f4 46 be
       -0.1580398 0.11887179 0.22753371 -0.19429366
0001f0 2c d3 4d be 3c 38 81 bc 08 26 3f bd d0 1c 50 be
       -0.20100087 -0.015773885 -0.04666713 -0.20323491
000200 57 22 31 be 1d 04 97 3e c7 14 ac bd 3e e9 bb bd
       -0.17298256 0.29495326 -0.084024005 -0.09175347
000210 d0 9e b3 bd 8b 46 33 3e aa 31 aa 3d 62 15 99 be
       -0.087705255 0.17507379 0.08310254 -0.29899126
000220 25 54 21 3e 37 2b 83 3c 60 69 c1 3d 6f 71 86 3e
       0.15754755 0.016011817 0.09443927 0.26258418
000230 93 90 d2 3d 09 94 25 3e 22 3e d7 bc 17 b3 49 bc
       0.102814816 0.16169752 -0.026274744 -0.012310765
000240 14 65 6e 3b 8a 1c ee 3c 79 04 53 be 38 d7 b8 be
       0.0036376165 0.029066343 -0.20607175 -0.361017
000250 43 ba 77 be a3 b7 82 bc 88 75 86 3d 70 42 ed 3d
       -0.24192147 -0.015956705 0.06565386 0.115849376
000260 bb 41 93 be 3e bc 71 be 86 be f2 bd 33 82 2a 3d
       -0.28761086 -0.23606965 -0.11852746 0.041628074
000270 f6 da 2b be 11 94 f7 3c 06 20 1d be a1 b8 c9 3d
       -0.16782746 0.03022197 -0.15344247 0.09849668
000280 4f 19 c7 3a 02 de 30 be 31 f5 1e be 29 fe 30 3c
       0.0015190038 -0.1727219 -0.1552322 0.010802784
000290 2b 7b 91 bd ee d9 31 3b ab c4 b6 3d 54 79 8e be
       -0.071035706 0.0027137953 0.0892423 -0.2782694
0002a0 f9 5d e7 3d 6a db 01 3d 85 e4 17 be 90 1c 06 bd
       0.11297221 0.03170339 -0.14833267 -0.032742083
0002b0 df 3a 04 3e 6f 15 7d be 9f ff 1b be 14 77 db 3d
       0.12913083 -0.24715208 -0.1523423 0.10716072
0002c0 0b 28 e7 3d 78 8f 93 be 66 77 c5 3d 67 4e 0f 3e
       0.112869345 -0.28820395 0.09641914 0.13994752
0002d0 f9 ca 09 be c7 bb 5b be 3f d8 c3 bc 8a 7c df 3d
       -0.13456334 -0.2145835 -0.023906825 0.10912426
0002e0 45 b9 a0 be 58 bd 1b 3c f7 04 29 be fe 27 0e 3d
       -0.3139135 0.009505592 -0.165058 0.03470611
0002f0 16 a0 f5 bd 3b 27 58 be d0 f6 41 3e 45 e9 8b 3d
       -0.119934246 -0.21108715 0.18941808 0.06831602
000300 39 5a 6a 3c 1c b1 7a be 94 a6 24 3e c2 de 40 3d
       0.014303737 -0.24481624 0.1607917 0.04708744
000310 2a e0 86 be ef 00 ac bd 69 e7 53 bd 9e ff 3e be
       -0.263429 -0.083986156 -0.05173436 -0.18652198
000320 91 be 06 3e bc 23 3f be 44 9e 2c 3e 67 52 a5 3c
       0.13158633 -0.18665975 0.16857249 0.020180894
000330 c4 a4 b2 bd 61 15 1c 3e b0 38 9f be 20 07 9f be
       -0.08722833 0.1524253 -0.31097937 -0.31060123
000340 39 da 9f bc 0d df 80 be aa 7d 3c be 77 53 67 3e
       -0.019513236 -0.25170174 -0.18407312 0.22590433
000350 82 62 4e be 83 b7 51 be 55 82 e0 bd 83 89 61 be
       -0.20154765 -0.2048016 -0.10962359 -0.22025113
000360 a3 99 8b be b7 4b dc bd 45 e2 17 be d5 a0 9a be
       -0.27265653 -0.10756629 -0.14832409 -0.3020083
000370 a6 33 ab 3d 73 62 59 3e 35 be bc 3d cf 5a ea bd
       0.083594605 0.21228962 0.092159666 -0.114431016
000380 f8 d0 60 3a c1 12 d9 3d a3 e7 8e bd 37 7c 08 be
       0.00085760606 0.1059928 -0.06977775 -0.13328634
000390 6f 19 04 be eb a9 8e 3b 22 9d 92 bc 21 1d 37 be
       -0.12900327 0.004353752 -0.017897192 -0.17882206
0003a0 e3 2a 6d be 6c 9b 08 3e d4 32 62 3e f5 62 4e be
       -0.23160891 0.13340539 0.22089702 -0.20154937
0003b0 1c ee 83 be 36 b9 d9 bd b0 ed 71 be ef 94 80 3c
       -0.257676 -0.10631029 -0.23625827 0.015696017
0003c0 0f c4 47 be da 25 f9 3d 56 5d b3 3d 56 22 4b 3e
       -0.19508384 0.12165423 0.08758037 0.19837317
0003d0 4a 58 26 bd 12 8e 55 3e 39 16 f9 3c d4 24 89 3d
       -0.040611543 0.20854977 0.030406104 0.066964775
0003e0 01 9b 82 bd c1 ce 97 bd 80 5d 2f be 1b bb 32 3d
       -0.06377221 -0.07412482 -0.17125511 0.04363547
0003f0 fa 24 9e be 87 be 72 3e 6a 7b c9 3d 15 22 1e 3d
       -0.30887586 0.23705493 0.098379925 0.038606722

fc1.bias f4 [128]
000000 ba a5 7f 3d 7a 21 8f be 3d 5f 99 bd a5 c5 d3 bd
       0.06241391 -0.27955228 -0.074888684 -0.10340432
000010 a3 5e cf bd b7 6a be bd 5b 58 96 bc f5 fb e2 3d
       -0.101254724 -0.09297698 -0.018352678 0.11083213
000020 62 8b 61 3d 50 1e 18 be 9b f6 a9 3d 3f e2 e4 bd
       0.055064566 -0.14855313 0.082989894 -0.111759655
000030 55 47 a8 3b bf c2 58 bd 6f 99 6d be 7f 3f 72 be
       0.0051354566 -0.0529201 -0.23203062 -0.23657034
000040 27 42 93 be f9 11 8e 3e 6d 8f a4 bd 60 a6 04 bb
       -0.28761408 0.27748087 -0.08035169 -0.0020240769
000050 bd 66 8d 3d b6 91 3f be 2e b4 b3 bd ed f8 31 be
       0.069043614 -0.18707928 -0.08774601 -0.17380114
000060 1a 9c 09 3d 8e f1 80 bd c7 34 ee 3c 4d 54 48 be
       0.033596136 -0.06296073 0.0290779 -0.19563408
000070 32 dc d2 bd ce 25 f6 bd e1 dd d1 3d e9 92 0f be
       -0.10295905 -0.120189294 0.10247398 -0.14020886
000080 72 1d f5 bd 4f 8a 7b be 3b 05 c9 bd 0b 03 89 be
       -0.11968507 -0.2456448 -0.09815451 -0.26760134
000090 9b 8b 33 3d 37 0b 01 bd 36 92 d3 bd 54 03 2c be
       0.04383431 -0.031504836 -0.10330622 -0.16798145
0000a0 fa b2 6c bd bb 71 25 be 7b 47 a6 3d 5b ee 02 bd
       -0.057787873 -0.16156666 0.081191026 -0.031965595
0000b0 f3 25 3f be f8 2c 8f be 5c ce dd 3d dc dc ee 3d
       -0.1866682 -0.27963996 0.108303756 0.11663219
0000c0 06 63 62 3d ca 83 e0 3d 0e f6 0e be 5e af 30 be
       0.055270217 0.10962637 -0.1396105 -0.17254397
0000d0 75 2c 58 be 25 2f f0 3c e9 a9 dd 3d ca 96 75 be
       -0.21110709 0.029319355 0.108234234 -0.23983303
0000e0 2c 14 9f be db f5 86 be 40 d9 3e bd 44 19 13 3d
       -0.31070077 -0.26359448 -0.046593904 0.035912767
0000f0 62 5e a9 be 83 c5 27 3e 48 53 c2 bd e7 9d 9f be
       -0.3307982 0.16383938 -0.09488541 -0.31175157
000100 3a b5 8a bd 5d 6e 43 3e 91 33 d7 bd a9 9e 7d be
       -0.067728475 0.19085069 -0.105078824 -0.24767555
000110 8e d5 8e be b9 12 69 3e 6d 12 15 3e 88 c9 74 bc
       -0.27897304 0.22761048 0.1455781 -0.014940627
000120 61 90 90 3d 30 3f d5 3d c2 3b 8b 3c 05 19 d1 3d
       0.07058788 0.10412443 0.016996268 0.1020985
000130 f0 bf d0 3d 92 91 72 be fb 5b 0a be 91 f9 cf bb
       0.10192859 -0.23688343 -0.1351165 -0.0063468893
000140 d6 09 85 be 91 5e 0b 3e b1 53 7c bd 18 05 af 3b
       -0.25984067 0.13610293 -0.06160325 0.0053411834
000150 80 61 44 3b 2c 2b 00 be a2 c0 45 3d bf d5 18 3e
       0.002996534 -0.12516469 0.048279412 0.14925288
000160 da 0e a8 bd b7 07 ce 3d e8 fe 7f bd 59 e5 33 3e
       -0.08205958 0.10060065 -0.062498957 0.17567958
000170 b7 47 66 be 54 74 52 be 60 6d c5 bd 8c 91 15 be
       -0.22488295 -0.20552188 -0.09640002 -0.14606303
000180 af 43 74 be df 44 52 3c 35 5d 6c bd eb 2f 1c be
       -0.23853944 0.012833803 -0.057706077 -0.15252654
000190 6b 0e e8 bd 8e 9d 8a be 81 9c 91 bd da 17 8b 3d
       -0.11330875 -0.2707333 -0.07109929 0.06791659
0001a0 1d 27 28 bd 5a 5f 45 3e a5 b7 0d bd a9 a0 5c 3d
       -0.041052926 0.19274655 -0.034598965 0.053864155
0001b0 3d b8 a8 bd af 6c db bd fd 20 69 be 88 f0 62 be
       -0.08238266 -0.10714089 -0.2276649 -0.22162068
0001c0 5e 97 1a 3d 7e 95 96 3d 86 a2 24 be 31 b0 cc 3d
       0.03774201 0.07352732 -0.16077623 0.09994543
0001d0 b9 98 bf 3d 7b d3 87 3c 99 be b2 bd 2c 09 20 be
       0.093553014 0.016580334 -0.0872776 -0.15628499
0001e0 b4 89 46 be 93 87 2a 3e bf cf ec 3c f0 21 07 be
       -0.19388467 0.1665328 0.028907655 -0.1319654
0001f0 19 4d 11 3e cb 80 98 bc b6 37 82 be a8 4d 64 bb
       0.14189567 -0.0186161 -0.2543313 -0.0034836326

fc2.weight f4 [1, 128]
000000 a9 90 67 bc 32 1a ac bc 32 d6 62 ba c5 ff 72 3c
       -0.014133611 -0.021008585 -0.00086531334 0.014831488
000010 65 57 6a bb e8 29 3e bc 50 dd 85 3c 1c a5 0d 3d
       -0.0035757658 -0.011606671 0.016340882 0.03458129
000020 47 a1 fe 3d 71 37 a4 3d 29 43 03 3c 31 5e cc b7
       0.12433105 0.08018387 0.008011618 -2.4362556e-05
000030 e6 06 00 bc 4a 1d f7 3a e0 6b cf bb 28 63 a3 3d
       -0.007814145 0.0018853333 -0.0063299984 0.07977897
000040 d1 08 c5 3c b5 06 9b 3d 9d 10 e0 b9 bf b6 54 bd
       0.024052056 0.07569639 -0.00042736987 -0.051932093
000050 71 f0 46 bc b2 5d 09 bc 46 7c 3d 3d 29 0b 15 3d
       -0.012142287 -0.008384155 0.046261095 0.036387596
000060 4f 39 10 bd fd 20 20 3c 19 54 50 3c 98 04 86 3c
       -0.035210904 0.00977349 0.012715363 0.016359612
000070 a2 5e af bc 48 6e 87 bc 1f c0 4d 3c f6 fc 62 3d
       -0.02140743 -0.016532078 0.012558012 0.055417024
000080 51 a7 70 3c 73 01 c6 3c 5f 4a a3 3c 74 1b 89 bb
       0.014688329 0.024170613 0.019932924 -0.004184181
000090 96 5c 86 bd b1 76 5f 3d 9e 28 84 3a 07 00 19 3d
       -0.06560628 0.054556552 0.0010082906 0.03735354
0000a0 46 63 a3 3c 5f 57 2d 3d 9e ad fb bb 2b 3b 1e 3c
       0.019944798 0.04231965 -0.007680609 0.009657661
0000b0 59 db b6 bc 9b 59 ca 3d 76 a2 4b 3c 15 02 4e 3c
       -0.02232139 0.09880372 0.01242887 0.012573739
0000c0 b9 bc f6 3a 71 24 a8 3d 51 49 47 3c 87 c0 08 3c
       0.0018824554 0.08210076 0.012163476 0.008346683
0000d0 1f 00 c5 bb 24 ce a5 bd 1d 3b 06 3c a3 cc ab 3b
       -0.0060119773 -0.08095959 0.008192805 0.0052429005
0000e0 3f 27 09 3c a0 0a bc bc 42 1e 1d 3c 66 d1 76 bc
       0.008371173 -0.022954285 0.009589734 -0.015064573
0000f0 2f 81 24 bd 7e 6d 3f bc 20 44 dc bd 1d fe 88 bd
       -0.04016226 -0.01168382 -0.10755181 -0.06689093
000100 60 5f 5c bc 11 6a 35 3b c6 d6 a0 3a e5 8c 7a bd
       -0.013450474 0.0027681629 0.0012271039 -0.061169524
000110 34 6d d2 bc e3 8b 99 bd b2 e5 a1 3c 2d 60 41 3c
       -0.025686838 -0.074973844 0.019762848 0.011802715
000120 28 66 ef 3c 28 af 1e bc 87 c2 5d ba 05 a3 67 3c
       0.029223517 -0.009685315 -0.0008459468 0.014137988
000130 f4 55 44 3b 06 a2 3c 3d f3 2a 52 3d ef e1 2f 3d
       0.0029958459 0.046052955 0.05131049 0.042940076
000140 43 55 fa 3b 16 2b 9a 3d 8f 67 b1 bc a6 78 aa 3c
       0.0076395585 0.07527749 -0.021655826 0.020809483
000150 7b ed 85 bc 7b 79 6c bd b7 b9 b3 3c 48 74 18 bd
       -0.016348591 -0.05773304 0.021939142 -0.03722027
000160 f1 1c 99 bd 86 b5 0d 3c f9 4f d0 bb 3d 41 39 3b
       -0.07476223 0.008649236 -0.0063571897 0.0028267645
000170 6c c6 bf bc 5a 58 34 3d c4 90 88 bc 5a e7 fb bb
       -0.023410045 0.04402957 -0.016670592 -0.0076874914
000180 94 01 3d bd 16 c5 6a 3a 2f db 0b bc 2d c8 b3 3b
       -0.046144083 0.00089557597 -0.008536144 0.0054865093
000190 db 79 67 bc 6a 20 55 3b b7 9f a2 3d 5f 8b b3 bb
       -0.014128174 0.003252054 0.079406194 -0.005479261
0001a0 d5 bf 37 bd 14 a9 e7 3b 00 f6 f9 bc 4f dd 4c bb
       -0.04486068 0.007069716 -0.03051281 -0.003125984
0001b0 7d 01 6e bc af d6 52 bb 5b aa c0 3c 70 75 9a 3c
       -0.014526722 -0.0032171418 0.023518732 0.018854827
0001c0 f8 0c eb ba 18 f4 e5 ba 9c 69 78 bb 22 5f da 3b
       -0.0017932942 -0.0017544059 -0.0037904745 0.0066641727
0001d0 3c e6 db 3d aa 1c 01 bd 6d 04 1a 3c 42 0d f6 bb
       0.10737273 -0.031521477 0.009400469 -0.0075089047
0001e0 ab 01 0d bb 7f e1 2d bd cc 18 b3 3c 86 8b 59 3d
       -0.0021515887 -0.042451378 0.02186241 0.053111576
0001f0 7a c8 39 ba c0 f0 c0 bb 95 08 b0 3b 55 a2 b9 bb
       -0.0007087063 -0.0058880746 0.005372117 -0.0056651034
